LunarBestActor.pth (torch_old, 142976 bytes, 6 tensors)

layers.0.weight f4 [256, 8]
000000 44 99 3d bf 8b 2c 50 3e 7d ae 54 3e c6 6e a1 be
       -0.7406199 0.20329492 0.20769687 -0.31529826
000010 e5 a1 76 3e e4 28 8b 3e 19 70 80 3e 5b f9 2e bf
       0.24085195 0.27179635 0.25085524 -0.68349236
000020 31 a5 09 3e 8e 1a 1e bd db 7b 91 3d 57 2a 12 3f
       0.13441922 -0.038599543 0.07103702 0.57095855
000030 0b f0 05 3e 9f 7e 5d 3e 77 7b 35 3d 03 9e 36 3f
       0.1307985 0.21630333 0.0443072 0.71334857
000040 b4 22 27 3d a8 d8 84 3e 98 ce 25 be 26 2b 1f 3e
       0.04080458 0.25946546 -0.1619209 0.15543804
000050 05 26 ea 3e fb b7 ae 3e b3 08 d7 bd ee 55 e7 bd
       0.45732132 0.3412474 -0.10499706 -0.11295687
000060 ea 8c 49 3e 2f 9d 18 3f cc a7 f0 3e f7 04 5d 3e
       0.1968266 0.59614843 0.4700302 0.21583925
000070 7a 57 c1 3d 2e b8 d6 3e 3e 66 c7 3c 90 7f de 3d
       0.09440513 0.41937393 0.024340745 0.10864174
000080 30 6a c7 bd dc ee 91 be 63 8c 68 3d e2 70 9f 3e
       -0.097370505 -0.28502548 0.05677451 0.3114081
000090 07 32 6b 3e 9a 12 0b be 7d e4 19 bd 0b 60 e6 bc
       0.22968303 -0.13581315 -0.03757142 -0.028121969
0000a0 56 ad dd bd 71 ed 0a be 86 39 f2 be be 3c b2 3e
       -0.10824077 -0.13567139 -0.47309512 0.34811968
0000b0 54 da 80 3d d6 c7 28 3e 46 d7 51 3d 6d 75 e1 bd
       0.06291643 0.16482481 0.05123069 -0.11008725
0000c0 9a 87 f6 3e d6 db 5d be 4b 7b cf 3d 42 a9 99 3e
       0.4815033 -0.21665892 0.10130938 0.30011946
0000d0 e2 28 41 3e 41 6e bf bc 0c 10 56 be 04 8f ef 3d
       0.18863252 -0.023368003 -0.20904559 0.116972
0000e0 c9 ea 68 3e 1c ac 9a 3e fe fd 13 bf 06 5f 14 bf
       0.22745813 0.30209434 -0.57809436 -0.57957494
0000f0 5d c7 a0 be 00 61 86 bd 65 9c 10 bf c9 73 5e 3d
       -0.31402102 -0.0656147 -0.5648864 0.05430964
000100 97 40 ec be 4d df 05 be a2 60 13 3f 23 71 1c be
       -0.46143028 -0.13073464 0.57569325 -0.15277533
000110 26 01 12 3e fa 7f 97 3e 4a c1 71 be 1d 2c a7 3e
       0.1425825 0.29589826 -0.2360889 0.32650843
000120 6b 5b cd be d8 32 c6 3e 45 99 9e 3d 36 f9 35 3f
       -0.4010881 0.38710666 0.077440776 0.7108339
000130 12 96 7c 3e 42 ea 5f be 7d 2a a3 be 2b a1 e5 3e
       0.24666622 -0.21866706 -0.31868353 0.44849524
000140 f1 3a 65 be 8d e9 4c 3e 7b f6 1f be 00 88 c3 3d
       -0.22385766 0.20010968 -0.15621369 0.09547424
000150 2c fe c0 3e 30 b8 2a bd 86 1f 74 be 65 01 cd bc
       0.37693918 -0.04167956 -0.2384015 -0.025025079
000160 57 8e 5d ba 24 a4 c1 3e 55 42 8e bd b8 33 01 3f
       -0.0008451691 0.37820542 -0.069462456 0.5046954
000170 14 6b c9 3e de 98 c8 bc 8e 44 bf bd 36 01 a0 3d
       0.39339507 -0.024486955 -0.09339248 0.07812731
000180 08 a3 0c 3f b4 45 27 bd 03 b0 ce 3e d6 6c ae 3d
       0.54936266 -0.04083796 0.4036866 0.085168526
000190 21 ac 97 3e 96 2c 15 be 10 b7 9d bd 1b 36 9a be
       0.2962351 -0.1456779 -0.07700932 -0.30119404
0001a0 e5 b8 b2 3e 9c a4 24 bd 18 37 e2 3e 94 24 50 3d
       0.34906688 -0.040196046 0.44182658 0.050816134
0001b0 1d e2 5e 3e e8 4f 9c bd 3e b7 42 bd ff 36 c6 be
       0.21765943 -0.076324284 -0.047538035 -0.38713834
0001c0 87 22 34 bf d1 4c f5 3e 64 e7 8f 3d 85 41 b0 3e
       -0.70365185 0.4791017 0.07026556 0.34424987
0001d0 69 e0 39 3e 02 b9 9a bd 7c a3 ef 3d c2 40 37 be
       0.18152012 -0.07554819 0.11701104 -0.17895797
0001e0 89 6a be be 9f f2 59 bd 54 bb 06 bf c9 cb 82 3e
       -0.37190655 -0.053209897 -0.5262959 0.255461
0001f0 f8 8b 87 be 08 2e 05 be 69 f9 4d be 0e 80 cc bd
       -0.26473975 -0.13005841 -0.20114674 -0.09985362
000200 9d 8a 02 be e9 91 2a 3d cb ba f9 3e cd 25 79 be
       -0.1274819 0.041643057 0.48775324 -0.24330826
000210 d3 7b f5 be 54 33 ce 3c 7d 02 4e 3e 81 3d a3 be
       -0.47946033 0.02517096 0.20118137 -0.3188286
000220 17 79 4f be 55 56 4a 3d 57 18 24 3e ed 7e 41 3e
       -0.20261036 0.04939874 0.1602491 0.18896075
000230 5b f7 b0 be 53 ed 7c bd a6 14 65 3e d9 60 44 be
       -0.34563717 -0.061749768 0.22371158 -0.1917757
000240 43 db 06 bf 0c 29 56 be 55 ef 8c 3e c4 25 b4 3e
       -0.52678317 -0.20914096 0.27526346 0.35185063
000250 6d 4e c1 3d 17 09 a3 3e f1 3b 98 3d 93 13 0d 3e
       0.09438787 0.31842873 0.07433308 0.13776998
000260 f0 ee 34 be 33 3c 46 3e c9 bd 1b 3d 1f 4c 27 3e
       -0.17669272 0.19358902 0.03802279 0.16337632
000270 3b 8d 66 3d 80 17 e0 bd 04 09 00 3f 48 b9 c4 be
       0.05628703 -0.10941982 0.50013757 -0.38422608
000280 c1 dd c9 be 58 47 5a 3e c3 ff 14 be b8 c5 5f 3e
       -0.39426997 0.21316278 -0.1455069 0.21852767
000290 ae 5c be 3e d4 4c e9 3e 04 d9 62 be 2f c9 19 3f
       0.37180084 0.45566428 -0.22153097 0.60072607
0002a0 5f d4 3d 3e a9 92 47 be 79 82 c6 3e c7 b3 8a 3e
       0.18538044 -0.1948954 0.38771418 0.27090284
0002b0 c1 ff 0b be 48 35 2f be 4c 17 1e 3c 17 ce d0 bd
       -0.13671781 -0.17110169 0.009649109 -0.101955585
0002c0 b1 69 1a bd b7 a3 76 3e 14 83 ef be d1 3f 56 be
       -0.03769845 0.2408589 -0.46779692 -0.20922782
0002d0 62 12 ee bd b1 9a 8b 3e e7 d6 4b be 94 0a 5f be
       -0.116246 0.27266458 -0.19906197 -0.21781379
0002e0 1f 6d 82 3d bc 75 1f 3e 9b e8 51 bd 1d f2 e5 bd
       0.063684694 0.15572256 -0.05124722 -0.1122782
0002f0 d0 86 bb be 2f 56 0c bf 00 15 4c bd 08 22 de 3d
       -0.3662629 -0.54819006 -0.049824715 0.10846335
000300 c9 67 84 be 76 72 70 be 83 83 69 be ae 70 50 bd
       -0.25860432 -0.23481163 -0.22804074 -0.05088871
000310 6d 6e 0d 3d 6a 21 cf 3e 51 8c be 3e a7 df ab 3e
       0.03452914 0.4045518 0.37216428 0.3356907
000320 8b 44 47 be 6c 0c 9c 3d 72 d9 35 3e d6 ba ab 3e
       -0.19459741 0.07619557 0.1775873 0.33540982
000330 72 35 8a be af 59 0f 3f 63 a8 3b bc c1 52 ba 3e
       -0.269939 0.5599622 -0.011453721 0.3639126
000340 e5 f3 32 be de 15 17 be d0 f3 90 3e cd 64 73 3e
       -0.17475851 -0.14754435 0.28311014 0.23768921
000350 fb ea 0d bf f0 89 40 be c0 26 a0 be e5 4b ec bc
       -0.55436677 -0.18802619 -0.31279564 -0.028844783
000360 c2 96 b7 3e fb d5 12 3e 98 45 06 3f a3 d1 41 be
       0.35857207 0.1433944 0.5244994 -0.18927626
000370 75 20 38 3e a6 21 b4 3d bf d1 2d 3d 61 e6 76 be
       0.17981131 0.087954804 0.042436358 -0.2411132
000380 b6 7b 14 bf b3 8e de bc 27 1b a9 3d ad e4 f6 be
       -0.5800127 -0.027167654 0.08257132 -0.4822134
000390 fd e7 c2 3d 09 72 b1 3e a0 cb 40 be 60 63 14 3e
       0.095169045 0.34657314 -0.18827677 0.14491034
0003a0 c7 b0 5d be fe dc 0a be ae b8 16 be 6c e5 4d 3d
       -0.21649466 -0.13560864 -0.14718887 0.050267622
0003b0 73 3e d8 be 9c 72 e0 be 08 94 03 3e 1a db 99 be
       -0.42235145 -0.4383744 0.12849438 -0.30049974
0003c0 64 9f 0f bf c0 72 4a bd cb 65 a1 bd 6c 21 8a be
       -0.56102586 -0.04942584 -0.078807436 -0.26978624
0003d0 ef 51 06 3e 79 39 cd 3e 14 32 20 bd 2b af b3 be
       0.13117193 0.4008291 -0.03911026 -0.3509458
0003e0 36 4c 2a 3f d9 ea a0 bd 83 12 75 3e df d2 b2 3e
       0.6652254 -0.07857294 0.23932843 0.34926507
0003f0 7b 76 a3 3e 93 37 9f bc 2b 95 36 be 42 92 01 bf
       0.3192633 -0.01943568 -0.1783034 -0.50613797

layers.0.bias f4 [256]
000000 20 2e e8 bd 09 a0 2d 3e 6a 54 fb bd 54 83 0e 3e
       -0.11336923 0.1695558 -0.1227196 0.13917285
000010 9d c8 9f 3d cf c3 a3 3e c6 01 d7 3e fd e0 a7 3e
       0.07801936 0.31985328 0.4199354 0.3278884
000020 40 c6 9f 3e b9 b0 90 be 16 3c 00 3e 38 00 82 be
       0.3120594 -0.2825983 0.12522921 -0.25390792
000030 3f aa 6c 3c 97 ef 8e 3d 71 33 95 bd ce fa b4 3d
       0.014444887 0.06979292 -0.07285202 0.088369
000040 9d 38 9b bd e6 a0 d8 be fa ca 58 3d 66 1a cc 3e
       -0.075791575 -0.42310256 0.05292795 0.3986389
000050 2f d5 19 be 5b 21 19 be 82 da d9 bb 90 70 5b 3e
       -0.1502273 -0.1495413 -0.0066483626 0.21429658
000060 75 50 0e bf e7 f7 cc 3c 3d c7 1b be da d0 86 be
       -0.5559152 0.025020553 -0.15212722 -0.26331216
000070 c3 8b b3 bd 61 a1 fc be 1f cc 42 3e 53 dc 96 3e
       -0.08766892 -0.49341872 0.19023179 0.2946497
000080 de 06 95 3b 22 fc 30 bf ef aa b4 be b0 e8 ed 3d
       0.004547938 -0.69134724 -0.35286662 0.11616647
000090 64 aa 95 be 2f ee f2 bd 6c 56 72 3e 48 76 8d 3c
       -0.2923156 -0.11861836 0.2366578 0.017268315
0000a0 ce e9 48 be 8e 47 a6 3e 61 b6 a4 bd cb a4 04 3e
       -0.1962044 0.32476467 -0.080425985 0.12953489
0000b0 7d 90 61 3e cd 82 7b be 03 f8 99 be 62 0f 8d be
       0.22027774 -0.24561615 -0.3007203 -0.275508
0000c0 85 71 83 be 13 86 97 3e 87 f9 9b 3c eb 93 52 be
       -0.25672546 0.29594478 0.019039882 -0.20564239
0000d0 e0 65 e6 3e df fa 94 3e 5a 97 97 3d b2 e7 5d be
       0.449996 0.2909765 0.07401915 -0.21670416
0000e0 e6 e3 28 be 84 8a 07 3f 8e 1b 92 be c4 56 f8 bd
       -0.16493186 0.52945733 -0.28536648 -0.12125924
0000f0 45 fb 81 3e b2 eb 12 bf 8b 57 9b 3e c2 f7 a9 bb
       0.25387016 -0.5739089 0.30340227 -0.0051870057
000100 d8 06 0e 3e 43 f6 27 3e c0 d1 a1 3e ef 1a 0c be
       0.13869798 0.16402535 0.3160534 -0.1368215
000110 46 80 03 be 30 38 cf 3e e8 64 0e bf b9 01 10 3e
       -0.12841901 0.40472555 -0.5562272 0.14063157
000120 96 51 48 be c9 af b3 3c c2 76 93 bd ca cf 1a 3f
       -0.19562373 0.021934407 -0.07200386 0.6047331
000130 b5 a6 00 bf e9 38 49 be 7b fb 83 3e d1 43 22 3e
       -0.50254375 -0.19650616 0.25777802 0.15846182
000140 52 bc e2 bc f2 21 87 3c b2 55 49 3e c0 9c 77 3e
       -0.027677689 0.016495679 0.19661596 0.24180889
000150 5a 5c b0 bd 7b f5 a3 3e 8f ed 5f be ea 3c 5f 3e
       -0.08611365 0.32023224 -0.21867965 0.2180058
000160 47 a4 96 3d 69 d6 4e be 8d 8d b7 3d b4 4b a5 be
       0.07355552 -0.20198978 0.089625455 -0.3228432
000170 f1 d7 d4 3e 1b 6a cd be 0e 5c 99 be 54 5c be be
       0.41571 -0.40120015 -0.29953045 -0.37179816
000180 d4 39 a5 be fe 93 bc bb 9b 98 c6 3e 94 e7 89 3d
       -0.32270682 -0.0057549467 0.38788304 0.06733623
000190 e2 1e 1e bd a1 42 25 be 82 f1 a6 3e 37 e7 92 bc
       -0.03860367 -0.16138698 0.3260613 -0.017932517
0001a0 1c 3b ee bd 0a 05 89 be e2 3f ca bd 3d 66 22 be
       -0.11632368 -0.26761657 -0.09875466 -0.15859313
0001b0 9e 70 e0 bd 1b cb de 3d 0c 28 eb 3e 80 95 de 3e
       -0.1095898 0.10878583 0.4592899 0.43473434
0001c0 7d 7c 9b 3d ca 26 0e 3e c9 f9 89 3e 9b 1e 12 bd
       0.07592104 0.13881984 0.26948383 -0.03567372
0001d0 80 6d a2 be d1 d6 9a 3d 7c 42 8a be 5b 48 57 bc
       -0.31724167 0.07560504 -0.2700385 -0.0131398095
0001e0 39 cb a0 3e 1c fc e9 3d b9 0a 30 3e dc 5c 88 3e
       0.31405047 0.11425039 0.1719159 0.26633346
0001f0 f3 69 7c 3b ab d5 bf be b8 75 63 3e 68 db 69 be
       0.00385153 -0.37467703 0.22212875 -0.22837603
000200 b9 76 30 be e9 a6 61 be b6 7d 68 be 2a 79 c9 3e
       -0.17232789 -0.22036327 -0.22704205 0.39350253
000210 ed f7 d0 3e b3 f2 85 be 41 48 b7 3c 2d f2 c0 bd
       0.40814152 -0.26161727 0.02237332 -0.09421191
000220 7a 00 7b 3e 45 db 5d 3d 7a f9 db bd 41 cb ae 3e
       0.245119 0.05416419 -0.10740943 0.34139445
000230 73 43 af be b7 1f 59 be 92 97 88 3e 6b 48 74 bd
       -0.34231147 -0.21203505 0.2667814 -0.059639376
000240 ec 70 20 3e 01 10 8c be 12 cf a2 be 22 eb 88 3e
       0.15668076 -0.2735596 -0.31798607 0.26741892
000250 d7 4a 1f 3e 45 6c bb 3e 6b 32 0d bd 71 90 a3 3e
       0.15555893 0.3660604 -0.03447191 0.31946138
000260 45 40 cb be 68 0b da 3e ec 62 2a be d5 fc a0 3d
       -0.3969747 0.42586827 -0.16639298 0.07860724
000270 2c c6 cd bd 4c ea 94 3e d0 fe fe 3e 7a 22 86 be
       -0.10047564 0.29085004 0.49803782 -0.2619818
000280 7b f5 93 3e 02 9a 5c 3e 22 18 6a bd 54 8e cd be
       0.28898224 0.21543124 -0.05715192 -0.4014765
000290 20 d8 58 3d 48 b5 d3 3d 11 5c e2 bd 42 28 5c be
       0.052940488 0.10337311 -0.110527165 -0.21499732
0002a0 0c 4b a7 bd 9c f3 ee be bc f9 2d bc a9 f3 cd be
       -0.08168611 -0.46670234 -0.010618623 -0.4022496
0002b0 aa 76 72 bd 79 51 60 3e 42 cd 22 3d a9 ba 0b 3e
       -0.059195198 0.2190608 0.03974653 0.13645424
0002c0 5c f6 0d 3d 67 67 40 be ad df 67 be 92 e2 83 3e
       0.034658775 -0.18789445 -0.2264392 0.25758797
0002d0 57 f6 bb 3e de 4d cf 3d bd f8 d3 3e 4c 2a ca 3b
       0.3671138 0.10122274 0.4140071 0.006169593
0002e0 b6 71 9a be 29 1d 44 bd 60 1c a8 3e ab ae c5 3d
       -0.3016488 -0.04787937 0.32834148 0.09652456
0002f0 81 da 72 be 2b f8 3d be cd 5a 90 3e 16 f4 18 3e
       -0.23716165 -0.185517 0.28194275 0.14936861
000300 11 e3 88 3e 0a 3b 5b be d7 57 b0 bd 8e 53 7d bd
       0.26735738 -0.2140924 -0.08610504 -0.061847262
000310 87 04 af bb 81 72 20 3e 4d bb a3 bc 1d fe a3 3e
       -0.005341116 0.1566868 -0.019986773 0.3202981
000320 07 e1 e0 3e 8e 84 f2 3e 37 8b fe bd 84 bf e9 3e
       0.43921682 0.47366756 -0.12428897 0.45653927
000330 8d ba d2 3e f7 55 36 bd ba 09 58 be f8 8c 6e bd
       0.41157952 -0.044515576 -0.2109746 -0.058239907
000340 5d 7f 6e 3e 7a 01 0a 3e 08 30 80 be 79 77 34 be
       0.23290773 0.13477126 -0.25036645 -0.176237
000350 0b 91 16 3e 8b 55 83 3e e9 c1 3b bd 38 79 17 be
       0.14703767 0.25651202 -0.045839224 -0.14792335
000360 3c 85 8d bd 55 11 d7 3e 8b a6 fe bd a7 71 35 be
       -0.06910178 0.4200541 -0.12434109 -0.17719136
000370 ac e4 aa be 62 2b ca be b1 9d 3c be 57 ed d9 bd
       -0.33377588 -0.39486223 -0.1841953 -0.10640972
000380 26 30 69 be 0e 30 e5 3e 6d 08 75 be c0 0c bb bb
       -0.22772273 0.44763225 -0.23928995 -0.005708307
000390 1f 4a e4 be 5d 8e 8d 3e d9 9e e0 be e9 41 78 be
       -0.445878 0.27647677 -0.4387119 -0.24243893
0003a0 c0 84 af bc f2 21 70 bd 5d ca ff be fb 20 8c be
       -0.021425605 -0.058626123 -0.49959078 -0.27368912
0003b0 3c 35 de 3b 90 79 a8 3e 35 d1 72 3e b6 f5 4b 3e
       0.0067812484 0.32905245 0.23712619 0.1991795
0003c0 0d 52 01 3e ca 90 10 bf f6 4b 84 3e e5 75 5f be
       0.12628956 -0.5647093 0.25839204 -0.21822317
0003d0 ea 06 b0 bd a0 46 bb bc 26 e6 b4 3e 8c 53 2d 3e
       -0.08595069 -0.022860825 0.3533184 0.16926402
0003e0 1c 3e f3 3e 28 61 e4 bc ab 19 a7 be cd 46 d3 bd
       0.47508323 -0.027878359 -0.3263677 -0.103162386
0003f0 bb 0d 9a be c0 c8 5b 3d 6d 5c e5 3e d6 c8 97 3e
       -0.300886 0.053658247 0.44797078 0.29645413

layers.1.weight f4 [128, 256]
000000 8c 80 08 be f9 2c 83 bd 4b f4 4f bd e7 76 28 be
       -0.13330287 -0.06405062 -0.050770085 -0.16451608
000010 35 ba 5c 3d 19 62 39 3e 24 17 ad 3d 0d 0d 55 3e
       0.05388852 0.18103828 0.08451679 0.2080576
000020 8c 15 85 bd 58 34 38 be 4e 21 fc bc ab 1d 90 bd
       -0.0649825 -0.17988718 -0.0307776 -0.07036909
000030 34 2b 80 bd 72 0d 19 bd 6c 38 e5 bd bb 70 2c 3d
       -0.0625824 -0.037366338 -0.11192402 0.042099696
000040 52 15 0a 3d 27 0f 97 bc 1e 3c 89 3c 1d 5c 0b 3c
       0.03371174 -0.018439842 0.016752299 0.008505848
000050 bd 07 37 bd b2 07 83 bd 93 50 82 3e ff 98 20 3d
       -0.044685114 -0.06397952 0.25452098 0.03920841
000060 24 eb 8d 3d dc ba 19 be 93 6b c1 bd a2 42 33 be
       0.06929615 -0.15012687 -0.09444346 -0.17505887
000070 ab e9 4c 3c 8c 77 fe 3c e0 21 83 bc cd 34 8b 3b
       0.012506883 0.031062864 -0.016007364 0.0042482377
000080 cd 4e 80 bd b3 b9 35 3d 25 c6 12 bd a1 fd 76 3b
       -0.0626503 0.04436655 -0.035833497 0.0037687796
000090 3a ea c4 3d 46 c0 66 bd 6f 88 80 bd 1f d5 c2 bd
       0.09614988 -0.05633571 -0.06276023 -0.09513306
0000a0 56 45 4e ba f1 be a8 3d f4 b9 c2 bd 32 c1 b9 3d
       -0.0007868608 0.08239544 -0.09508124 0.09070052
0000b0 d5 f6 91 3e df 09 0c 3a 64 ce 06 3d e3 b1 20 3d
       0.2850863 0.0005342047 0.032911673 0.039232146
0000c0 55 fe 4f 3d 90 e2 09 3e 4e f7 3c 3e 0b 09 50 3c
       0.05077966 0.13465333 0.18453714 0.0126974685
0000d0 43 69 62 3e dc 12 ad bd 89 be 20 be 30 01 3a bd
       0.22110467 -0.08450863 -0.15697683 -0.04541129
0000e0 e7 93 3f be 6c 65 62 3d ed 50 5e 3d b7 ea 95 be
       -0.18708764 0.055272505 0.054276396 -0.29280636
0000f0 0d cf 9e 3c 45 63 aa 3d 07 b5 17 3e 8b 66 3b 3c
       0.019385839 0.083197154 0.1481515 0.011438022
000100 d0 a4 43 bd 18 4b b2 bc 75 47 1b bd 9f f7 fe bd
       -0.0477646 -0.021764323 -0.037909944 -0.12449574
000110 4b 1d 46 3b ff 7d fc 3d f2 5a fb bb aa a0 fa 3d
       0.0030229862 0.12328719 -0.0076707536 0.122376755
000120 4b c6 34 bd fd 2d 8c 3d 11 7f 13 3d ab 0c 73 3d
       -0.04413442 0.06844709 0.03600985 0.059338253
000130 dc bf a9 be 8b 62 b2 3c 39 59 d6 3c 49 5b dc bc
       -0.3315419 0.021775505 0.026165592 -0.026898997
000140 34 f7 6e be d4 81 9e 3d ff eb e9 bc 34 25 5b bd
       -0.23336488 0.077396065 -0.028554915 -0.053502277
000150 9e 66 28 3e 03 7e 02 3e 76 33 32 3d 6c ee 62 bc
       0.16445395 0.12743382 0.04350611 -0.0138507895
000160 77 26 45 bd 07 51 af 3d da df 8e 3c 4a 09 ba bd
       -0.048132386 0.085603766 0.017440725 -0.09083803
000170 b5 33 bf 3d 83 79 83 3c 7c a4 2d bd 47 05 17 be
       0.09336034 0.016049152 -0.042393193 -0.14748107
000180 4c 07 3f bd 42 08 99 3d da bd e3 bc cc 44 1e be
       -0.04663782 0.07472278 -0.02780049 -0.15455931
000190 33 6f c7 3b c8 96 97 3c e2 9f 80 3d f1 02 49 3d
       0.006086254 0.018504515 0.06280495 0.04907507
0001a0 22 18 b8 bc 99 d1 a8 bc aa f3 e7 bb 11 87 01 bd
       -0.022472445 -0.020607756 -0.0070786076 -0.03162295
0001b0 a3 97 5a bd e0 b5 34 3e a0 cd ab bd fe f6 aa bc
       -0.05336727 0.17647505 -0.08388829 -0.020869728
0001c0 47 b7 0f bd 90 7b 4e 3d 9a d4 37 3c f3 9c e7 3d
       -0.035086896 0.050410807 0.011220122 0.113092326
0001d0 5a 1d 39 3d c6 2a 1a bc 5f 8f f9 bd ff 60 00 bd
       0.045194007 -0.009409612 -0.12185549 -0.031342503
0001e0 a1 89 b3 3d ae 5d e1 3c 12 ee f1 3c de f8 3c 3d
       0.08766485 0.02751049 0.029532466 0.046135776
0001f0 b2 64 96 3d f6 71 76 bd 51 9a cb 3c 99 7e a7 bd
       0.07343425 -0.060167275 0.024853857 -0.081784435
000200 1b 18 83 3d c1 49 33 bd 8b 3c aa 3c 15 e0 ec 3d
       0.06401082 -0.04377151 0.020780822 0.11566178
000210 fc f6 e4 bd 6a 5e e2 bd ed 8a 52 3a ed 78 e5 bb
       -0.11179921 -0.11053164 0.0008031566 -0.007002941
000220 f9 d3 36 be b5 64 65 3c 28 a3 65 3d e7 b4 bf 3c
       -0.17854299 0.014001061 0.0560638 0.02340169
000230 aa 1c b6 3d 82 37 3c bf c4 33 15 bc b3 43 1c 3d
       0.08892186 -0.735222 -0.00910658 0.0381505
000240 be d1 9e 3d 01 3e 42 3d 5f 65 b7 bb 3e d9 d7 3c
       0.07754849 0.047422413 -0.005596801 0.026348706
000250 d7 11 8a 3d b6 a1 ca 3d 1b 64 88 bd e3 47 aa 3d
       0.06741684 0.09894125 -0.066597186 0.083144926
000260 5d 05 5f 3d 15 9e 98 3e 93 c2 43 3c 57 1c 29 be
       0.054448474 0.29808107 0.011948246 -0.16514717
000270 48 ae 19 be ee 7c b4 3d f7 56 38 bc 93 c4 ee 3d
       -0.1500789 0.08812891 -0.011251203 0.11658587
000280 4c 53 c3 bc 0a ab 83 3d 7b c2 e1 bd 8a 3a 2c 3b
       -0.02384343 0.064291075 -0.11023422 0.002628001
000290 7e 79 87 be 7e c5 35 3b 78 6e f0 be c8 62 1a 3d
       -0.2645988 0.0027736123 -0.4695928 0.03769186
0002a0 ca 2a c3 bc 36 f1 26 3e 25 d2 21 3d 41 d2 4a 3d
       -0.023824114 0.16302952 0.03950705 0.04951692
0002b0 2f 90 39 bd 9d 9c bb bd 1e 4c a5 bc bb 77 1e 3d
       -0.04530352 -0.09160731 -0.020177897 0.038688403
0002c0 f9 20 09 3e b1 9b a9 be 6d 58 cb 3d 27 bf 4c 3d
       0.13391484 -0.33126596 0.09928975 0.049986985
0002d0 42 23 46 bd 2c c5 da bc 15 61 80 be f9 4f 5b bd
       -0.04837347 -0.026705347 -0.25074068 -0.053543065
0002e0 73 26 df 3d b6 da 45 bd 2d 62 eb bd 7d 3b 32 be
       0.108960055 -0.048304282 -0.11493335 -0.17405505
0002f0 96 7a 41 3d 43 9d 3e 3d 80 4f 2b bd ff 02 3d 3e
       0.047236048 0.046536695 -0.041823864 0.18458174
000300 69 a9 2d 3d 21 8c 1c bd d5 62 1f be fc d9 b6 3d
       0.04239789 -0.038219575 -0.15565045 0.08928296
000310 c0 bb 35 3d f9 75 6c bd 94 ec 39 bd b9 b8 77 3d
       0.044368505 -0.057729695 -0.045391634 0.0604789
000320 9b d7 8a 3e cc b1 34 3e bd 28 10 3d 4d 50 dd 3d
       0.2711762 0.17645949 0.0351951 0.10806332
000330 34 75 1a 3d 26 c6 0c 3c 3a 94 b8 bd dd 9b 8e 3d
       0.03770943 0.008592164 -0.09012647 0.06963322
000340 bf 7f 4b 3d 3b 48 1e bd 8d ac 74 bd ec d6 33 bd
       0.049682375 -0.038643103 -0.05973487 -0.043906137
000350 77 58 5e 3d f6 5c d6 3d b3 42 c6 bc 90 f2 5a 3d
       0.054283585 0.1046695 -0.024201727 0.053453982
000360 b9 d1 3c 3e e9 ba 1e bc e0 d5 b5 be 00 99 a6 bc
       0.18439378 -0.009688118 -0.35514736 -0.020336628
000370 88 38 35 3d e2 0a 18 be a0 77 0a 3d 31 b7 98 bc
       0.044243366 -0.14847901 0.03380549 -0.01864204
000380 97 43 c6 3d 83 cd 4a bd 73 4a 7d bd a2 04 c1 bd
       0.096808605 -0.049512397 -0.06183858 -0.09424712
000390 64 56 c1 bd c3 b9 8b 3d 93 4a b5 3c 30 26 67 bc
       -0.09440306 0.068225406 0.022130286 -0.014108226
0003a0 5e ad 1a 3e de 45 48 3d 07 ff 87 bd 42 16 91 bc
       0.15105197 0.048894756 -0.066404395 -0.017710809
0003b0 d8 58 36 bd 7b f4 3a bd 3e 11 84 3d 12 b3 e7 3d
       -0.04451832 -0.04564331 0.06448601 0.11313452
0003c0 bc 2c b1 bd a4 bb a9 3d 52 c3 dd bd b2 39 34 3d
       -0.086511105 0.08287743 -0.1082827 0.044000335
0003d0 02 e9 55 3e a2 79 d2 bd e9 f1 68 3d b2 d4 8c bd
       0.20889667 -0.10277106 0.05687133 -0.06876506
0003e0 84 7d 8b bd 57 0b da bb 06 7d 4c 3d 70 b8 d2 bd
       -0.068110496 -0.006654184 0.04992392 -0.10289085
0003f0 d7 dd b6 bd 93 8e 39 3e f7 f0 3e 3e 7d 34 c6 3d
       -0.08929031 0.18120794 0.18646608 0.0967798

layers.1.bias f4 [128]
000000 21 45 5c 3d ea ee 83 3c 52 88 cb bd 82 5a 15 bd
       0.053776864 0.016105134 -0.099381104 -0.036463268
000010 74 8e c6 3d 9f 6c f2 3c a7 03 15 bc 18 5a 7c be
       0.096951395 0.02959281 -0.009095109 -0.24643743
000020 12 62 f7 bc 80 21 90 bc 83 87 0e 3d 0f cb fb 3c
       -0.03019813 -0.017594099 0.034797203 0.030736474
000030 83 76 db 3c cd bd 87 bd eb a2 25 3d fa b3 be 3d
       0.02678991 -0.066279985 0.040438574 0.093116716
000040 91 03 9f 3c 07 ee 4c bd 75 98 05 3e 07 6f 4f be
       0.01941088 -0.050031688 0.13046439 -0.20257197
000050 b5 ac b9 3a cb 81 18 bd d7 1c b6 bd c4 6e 8e 3d
       0.0014165851 -0.037233155 -0.088922195 0.069547206
000060 d0 6e ea 3d f6 ac 8e bc a1 2b 32 3d d5 4a a8 bc
       0.11446917 -0.017416459 0.04349864 -0.020543495
000070 a4 52 4d be 6e 6f ac bd 57 d7 12 3d 9f 7b 00 bd
       -0.20051056 -0.08419691 0.035849895 -0.031367894
000080 9f 62 4b bd fc 0c 8c 3d 2a 1f de 3d e5 0d 32 3d
       -0.0496546 0.06838414 0.10845788 0.043470282
000090 12 9b 6a 3d 0b 8c 8a 3d ec 5a 2d 3d d9 07 47 bd
       0.057276793 0.06764992 0.042323038 -0.04859147
0000a0 b7 77 8b bd b3 30 47 bb d4 45 23 3b 4a 6c 8a bb
       -0.06809943 -0.0030394017 0.0024913447 -0.004224335
0000b0 ff 87 71 bd 27 45 87 bd 08 13 0a 3e 59 9b bf 3c
       -0.058967587 -0.06604987 0.13483822 0.023389505
0000c0 e0 3b 17 3e ba b4 40 3d 96 08 a6 3d 6d 2a 37 be
       0.14768934 0.047047354 0.081071064 -0.17887278
0000d0 91 ce a0 3b db 92 db bc b3 cb 3a 3e 13 85 21 be
       0.004907437 -0.026803425 0.18241768 -0.1577342
0000e0 6f a5 23 3d b1 15 0c ba 98 78 89 3d 00 ca 1b bd
       0.03995269 -0.00053438084 0.067124546 -0.03803444
0000f0 11 5b 33 3d f7 a0 ae 3a b1 d1 3e bd 75 65 81 bd
       0.04378802 0.0013323118 -0.046586696 -0.063181795
000100 1f c0 3d bc 4d e4 51 3c 35 22 50 3d 96 99 3f bc
       -0.01158145 0.012810779 0.050813872 -0.011694333
000110 d3 21 8b 3d fa 62 1a 3c 29 1b 65 bc 66 13 a7 3c
       0.06793561 0.009423012 -0.013983526 0.020394992
000120 8e 85 bd 3d b4 33 18 3d 28 d9 10 3d 67 55 95 bd
       0.09253989 0.037158683 0.035363346 -0.0729168
000130 7d f7 0c 3d 16 76 d7 bc 7c 0e a0 3c b6 23 6d 3c
       0.03441571 -0.026301425 0.019538157 0.014473846
000140 0c f7 20 bd 77 25 89 3d da b8 4a 3d 31 a3 e6 3d
       -0.039298102 0.06696599 0.049492694 0.11261595
000150 93 aa 86 bd 90 ca 4c bd 17 96 b6 3b 8f 0b 21 bd
       -0.06575503 -0.049997866 0.0055720913 -0.039317664
000160 3d d0 08 bd 0d d8 99 3d 7b c2 c7 3c a6 d5 83 3c
       -0.033401717 0.075119115 0.024384728 0.016093086
000170 af 11 3c be e6 75 73 3d 3f 27 8a bb 11 ee 4d bc
       -0.18366121 0.05943861 -0.0042161043 -0.0125689665
000180 33 bc df 3c 09 c0 a8 be 5f b0 3c bd 2d d3 a4 3c
       0.02731142 -0.3295901 -0.046066638 0.020120228
000190 3c 87 61 bc 74 1f 92 ba 44 af 3b bc 3b 24 16 3b
       -0.013765153 -0.001114829 -0.011455361 0.0022909779
0001a0 9a e5 88 bd e2 3e 35 3c 20 b7 cf 3d f2 03 24 be
       -0.06684418 0.011062356 0.1014235 -0.1601713
0001b0 64 12 04 3e 6e 36 90 bd 9c 3e 84 bd c7 9c 0e 3c
       0.1289764 -0.07041632 -0.06457254 0.008704371
0001c0 a0 0f b7 bd 5c c5 0c be 0c e7 fc 3d 50 e0 2e 3e
       -0.08938527 -0.13747162 0.12348756 0.17077756
0001d0 dd 50 91 3d fc a4 ac bd bb 81 81 3d a3 a7 00 3e
       0.070955016 -0.08429906 0.06323572 0.12563948
0001e0 4a 8a fd bd 66 69 4c 3d ff 59 16 3e 6b 54 1f 3c
       -0.12379892 0.049905203 0.14682768 0.009724717
0001f0 92 d1 03 bd 60 81 88 be 8d 80 b6 3d 53 ed 99 3d
       -0.032182284 -0.26661205 0.08911238 0.07515969

layers.2.weight f4 [2, 128]
000000 fa d1 43 3e 9e a0 3b be 17 cb 8a be 22 3b c5 3d
       0.19123068 -0.1832299 -0.2710807 0.09630419
000010 65 24 9a bd 7b 77 66 be 5e 30 54 be 59 65 4e 3e
       -0.07526473 -0.22506516 -0.20721576 0.20155849
000020 97 99 a7 3d 07 6b 78 be 1b 17 4a be ab 3b 07 3e
       0.08183592 -0.24259578 -0.19735377 0.13206355
000030 f6 62 4d be e3 e2 49 3e a6 a3 90 3d d3 83 42 be
       -0.20057282 0.19715457 0.070624635 -0.189956
000040 9b ac 19 be 22 5e 2d 3e 08 43 0a be 5c 84 29 3e
       -0.1500725 0.1693044 -0.13502133 0.16554397
000050 b0 2d 02 3d 80 c6 01 3d f5 ef 42 be 78 64 60 3f
       0.031781852 0.031683445 -0.19036849 0.87653303
000060 47 b0 44 3e c2 96 75 bd f6 f9 1e be bf 01 51 be
       0.1920787 -0.059958227 -0.1552504 -0.20410822
000070 26 7c 9f 3e fc 21 e0 3e 7a 55 9b 3c 20 f8 14 3d
       0.31149405 0.43775928 0.018961657 0.036369443
000080 94 d9 b3 bd 8f b0 81 be bf 22 a7 bd 9d 64 4c 3e
       -0.08781734 -0.25330016 -0.08160924 0.19960256
000090 eb 68 51 3d 2e c6 0f be 51 b0 7a bd a5 5d 20 bd
       0.05112545 -0.14040443 -0.061203305 -0.039151806
0000a0 4b 2a b0 bd 2f 8b 9b 3d d0 cd 93 3c 79 41 97 3e
       -0.08601817 0.075949065 0.018042475 0.2954214
0000b0 50 b4 ea 3c c4 7b 39 3e 8f 31 06 3f 63 f3 cf 3e
       0.028650433 0.18113619 0.5241937 0.40615377
0000c0 49 3c 49 bf 74 e2 5f 3e 3d eb 1b 3e 10 5c 95 3e
       -0.7860761 0.21863729 0.15226455 0.291718
0000d0 d7 1e 40 be 46 03 7a bb a8 cf 87 3e 3a b4 79 3b
       -0.18761764 -0.0038148924 0.26525617 0.0038101808
0000e0 13 83 43 3f a1 ea df bb 9e f2 1c be 49 70 90 be
       0.7637188 -0.00683339 -0.15326926 -0.28210667
0000f0 35 d0 b0 3e d4 3e bc bc 82 2d d7 bc 50 5f 02 be
       0.3453385 -0.022979178 -0.026266817 -0.12731671
000100 9a e5 ad bd e9 2a a9 3d f0 4e 70 3e 6c d9 62 be
       -0.08491059 0.082601376 0.23467612 -0.22153252
000110 97 4d c4 be b0 a9 34 3d 94 be 57 3d 37 a5 73 3e
       -0.38340446 0.04410714 0.052671984 0.23793493
000120 13 f1 b9 bd 29 48 c3 3c b6 29 f8 bd 7a b1 86 3e
       -0.090791844 0.02383812 -0.12117331 0.2630728
000130 1a d5 28 3e 32 99 03 3e a7 de a0 3d 77 41 43 3e
       0.16487542 0.12851408 0.078549676 0.19067942
000140 06 27 46 bf f7 23 71 bd ba 38 06 bd 4c 55 61 be
       -0.77403295 -0.05887219 -0.032768942 -0.22005194
000150 06 2b 47 3e d8 c7 28 3d df 02 93 bd ec a7 08 3d
       0.19450006 0.04120621 -0.07178282 0.033363268
000160 68 76 67 be 54 48 8f be de f0 90 3e 18 e2 51 be
       -0.22603762 -0.2798487 0.28308767 -0.20496404
000170 ae ac 3c 3e 4c f8 ea bd 2f 0f 17 3e 67 ac 0c be
       0.18425247 -0.1147314 0.14751886 -0.13737641
000180 4f 67 e4 bc a3 60 17 3e 03 7d c1 3c 0a f4 54 3d
       -0.027881293 0.14782958 0.02361918 0.051990546
000190 de 35 c3 3e 4f 6a d0 3c 16 86 4f 3d ac a7 9e 3e
       0.38127035 0.025441317 0.050664984 0.30987298
0001a0 88 55 3d 3e 4c 5d b1 be 06 ce 22 be 67 fa e2 3c
       0.18489659 -0.34641492 -0.15898904 0.027707292
0001b0 52 a2 b0 3d 9a 48 cd 3c 48 48 41 3d 78 87 51 3e
       0.0862471 0.025059033 0.047188073 0.20461833
0001c0 30 f9 66 3c 84 c0 7b 3e 04 4f 2d be bb a6 13 bf
       0.014097497 0.24585158 -0.16924673 -0.57676286
0001d0 7d 6f 64 be aa a8 ca 3d 5e 82 53 3e e4 b6 9f 3e
       -0.22308154 0.09895451 0.206552 0.31194222
0001e0 1d 96 fc bd 1d eb a6 be e0 5e c8 be 7f c7 d5 3e
       -0.12333319 -0.32601252 -0.39134884 0.41753766
0001f0 c3 ef 6c 3e 6d 37 64 be 66 90 22 bf 7e f0 17 be
       0.23138337 -0.22286768 -0.63501585 -0.14837834
000200 c0 e4 61 3e 4a 52 16 3e 03 b1 21 3e e9 ee ff bd
       0.22059917 0.14679828 0.15790181 -0.1249674
000210 3b dd 45 3e fe 96 27 be c3 05 22 be 88 2c a1 3d
       0.19322674 -0.16366193 -0.1582251 0.07869822
000220 df 2c 1e 3c e9 4c 4a be 9d 4b 1d bb 89 5c f3 3d
       0.009654253 -0.19755901 -0.0024001368 0.11882884
000230 74 ac e5 3d 1b 40 cb bd bc d7 9c be 7f f6 83 bd
       0.112145334 -0.099243365 -0.30633342 -0.064435
000240 47 51 54 3e b1 a5 33 3e 8c d5 05 be 5f 7e db 3d
       0.2073413 0.17543675 -0.13069743 0.10717463
000250 5d 18 b7 3d 96 0f ee 3c ef a2 7f 3e 5b b5 a9 ba
       0.08940194 0.029060166 0.24964498 -0.0012947725
000260 b9 a0 fa 3e eb 02 80 be 8b ed 0c 3d 6f b8 f2 bc
       0.48950747 -0.25002226 0.034406226 -0.02962896
000270 a2 7f 0d bc 2c 88 ad bc db d5 2d 3c 6e c9 1c 3d
       -0.008636387 -0.021183096 0.010610069 0.038278036
000280 bb d1 6f be d0 d5 09 bd 11 50 76 be 67 df 8f bd
       -0.2341985 -0.033651173 -0.2405398 -0.070250325
000290 de 88 6d be 61 0e 12 be fd e6 65 3d 13 8d df 3c
       -0.23196742 -0.14263298 0.05612849 0.02728895
0002a0 7d 3e 81 3d 77 a3 1e 3e 53 4a 8e 3d 10 a8 83 bb
       0.06310747 0.15492044 0.0694777 -0.0040178373
0002b0 06 11 06 3e 4f ed ee bd 2a 87 a7 3d a5 c4 b8 bc
       0.13092431 -0.11666357 0.081800774 -0.022554705
0002c0 38 58 a6 be 55 7f 03 3e bc 1f 01 3e cc 29 85 3c
       -0.3248918 0.12841542 0.12609762 0.016255282
0002d0 cb 0f bb bc dd 89 75 3d 6d ff dc bb 80 41 32 be
       -0.02283468 0.05994593 -0.0067443163 -0.17407799
0002e0 1e b4 79 bd ce 1d 65 be 36 a2 fb bd dc a4 59 3e
       -0.06096279 -0.22374651 -0.12286799 0.21254295
0002f0 33 f9 9b bd 95 31 2b be 5d 1c 89 3d 1c 30 a6 3e
       -0.0761589 -0.16718133 0.06694863 0.3245858
000300 f1 7b ce ba 0b d2 1a be ba 02 9e bd 94 06 49 bd
       -0.001575349 -0.15119188 -0.07715364 -0.04907854
000310 2e 9b 2c 3d 7d 4a 26 3c 93 bd 4a be 13 6f dd bc
       0.04214018 0.010149595 -0.1979888 -0.027030503
000320 57 f7 22 3e cd 58 20 3e ed 05 1c be 9b cf f9 3d
       0.15914665 0.15658875 -0.15236636 0.12197801
000330 fc 97 68 3e 45 c0 2b 3e 82 f1 73 3d f9 6a 5e 3e
       0.22714227 0.16772564 0.05955649 0.21720494
000340 8a 4c ca bd 79 a2 35 be 83 e5 10 3e 1d 40 6d 3d
       -0.0987788 -0.1773776 0.14150052 0.05792247
000350 c3 fa a8 bd c6 81 3b 3d df 87 7d 3d 25 a7 c3 3c
       -0.08250954 0.04577806 0.061897155 0.023883412
000360 ec 76 84 be 5c cd 02 3f 16 88 3c be 62 98 15 3e
       -0.2587198 0.51094604 -0.18411288 0.1460891
000370 5b fb 1b be 44 e5 87 3e f6 40 94 3d 95 a8 cc bd
       -0.15232603 0.26542103 0.07238953 -0.09993092
000380 a9 9b cb 3c 0e ac 84 be 08 bd b9 3d 22 5c bc 3d
       0.024854498 -0.25912517 0.09069258 0.091972604
000390 4e c4 87 bd 25 0e b7 bb c3 64 05 bd 4e e1 70 bd
       -0.06629239 -0.005586403 -0.032566797 -0.058808617
0003a0 06 fb ed bd 71 9b ba bd cd 24 93 be 4a 9a b3 3e
       -0.116201445 -0.09111679 -0.28739014 0.3507865
0003b0 15 3a a3 be 2a 63 24 3c d6 74 d4 3d d6 e6 e0 bd
       -0.3188025 0.010033408 0.10373847 -0.109815285
0003c0 5a ae b6 be 67 c8 35 3d ba ed 92 be 65 6f 40 be
       -0.35679895 0.04438057 -0.28696996 -0.18792494
0003d0 0b 3d 2a be 43 1f ad 3d 87 04 1f 3f e0 91 7b be
       -0.16624849 0.08453228 0.62116283 -0.24567366
0003e0 0c 28 0f be ba 87 37 bd 32 92 43 be a3 ae 9d 3e
       -0.1398012 -0.044807173 -0.19098738 0.307973
0003f0 59 fb 95 bd 98 c0 02 3e 6d af 99 be 8b 7e bd 3d
       -0.073233314 0.12768781 -0.30016652 0.09252652

layers.2.bias f4 [2]
000000 05 ff c7 3c f9 f9 c3 bd
       0.024413595 -0.09569163
