ResultActorNN/CarBestActor.pth (torch_old, 136315 bytes, 5 tensors)

layers.0.weight f4 [256, 2]
0.123696506 -0.6687796 -0.17876157 -2.207729 0.5638655 -0.040403515 -0.5327652 -0.1403158
-0.10859138 0.6558139 0.25026998 -1.9598203 0.71135324 1.1770723 0.11998153 0.033105075
0.84749913 0.08447445 0.1446038 -1.8330086 -0.47645772 1.8561842 0.5399001 -1.8082999
-0.7095168 -0.78867024 -0.71185684 0.31925106 0.10134922 -1.8530003 0.22633858 -1.9990942
0.5415165 0.47870916 -0.086294465 1.9346418 -0.24378666 -0.8594178 0.50515145 -0.31743
-0.10538596 -2.3729684 0.57128096 -0.16927212 0.19137831 1.96118 0.19894964 0.5084328
-0.5131255 -2.0166352 -0.32074913 -0.29623383 -0.124508634 -2.017686 -0.21747828 -1.9499524
0.24451187 2.3629425 0.10114969 2.508788 -0.58587486 1.5277725 0.34379363 -2.1199102
-0.35854796 -1.0539031 -0.060754538 -0.17855084 -0.55098605 0.2644897 -0.32895204 -0.063731946
-0.7013918 -2.1218283 0.7394916 1.7426702 -0.14659864 0.48026794 0.30996045 -1.8213384
0.3092708 -1.7117201 -0.38884345 1.7153379 0.4816934 1.4490955 -0.68790996 1.3226366
0.6107066 -2.034519 0.56277496 0.39067918 -0.13553534 1.4482193 0.25422037 -1.7938553
0.07559097 0.03710121 -0.67721677 2.1223295 -0.6862304 2.1701372 0.010529757 0.68097264
0.54944783 -0.1480344 -0.47263238 -1.607123 -0.046661377 0.007583678 0.79268456 0.94611603
0.037727803 -2.2851048 0.13455743 -0.5970426 -0.44869938 2.0179617 -0.09392369 1.5118791
0.53225046 -1.2726104 0.07750028 0.1266002 -0.36863276 -1.5145979 0.30424312 1.9302733
-0.6634172 2.0044138 -0.4522743 -1.9976319 0.14239146 -1.5036632 0.09359374 -2.0524113
0.41806403 1.3803903 0.5662791 -0.6465763 -0.31391564 -0.46009034 0.5616246 0.86746913
0.07898534 2.067161 0.5684505 0.55014056 -0.27233815 2.0071378 -0.62261426 -1.9036056
0.06841487 0.36648732 -0.24916431 0.7069053 -0.674563 0.9660187 -0.24039268 2.1227293
0.23221827 0.5575586 0.07792735 -2.2252648 0.92772627 0.36447755 -0.45240915 1.5673015
0.27084523 -0.19000947 -0.838828 -0.31454214 0.6065441 -0.120794296 0.2058639 0.057403684
-0.56244785 -2.0355878 -0.8723679 -0.22742954 0.31304276 2.1550612 0.5023598 1.3283979
-0.22067913 -1.6878401 -0.056767292 -1.279598 0.5970055 -1.5139456 0.62241215 -0.36569008
-0.3141991 -2.145664 -0.42824778 -0.14272971 0.321495 -0.66157323 0.11158073 0.11069542
-0.43370652 2.09337 0.19590299 -2.0771968 -0.3214956 1.8876728 -0.6022819 0.81061316
0.079089046 -0.4051767 -0.70972586 1.7939594 0.26410115 -1.0872468 -0.06897801 -0.7044108
-0.355121 -0.70237106 -0.49742755 0.1875084 0.009282863 1.1055238 0.09273652 1.5108482
-0.46396995 2.2420695 0.24652098 -2.1024342 0.60989684 1.3957344 -0.62201494 -1.4905574
0.12213399 1.8199341 0.3692333 0.07783419 -0.1574153 0.38983524 -0.15455455 -2.0688245
-0.5847396 -1.6711864 -0.46298978 -1.560221 0.5412509 0.34315902 -0.53280985 -0.015561104
0.22875112 -1.2828411 -0.007883636 1.8829966 0.7241995 1.7037141 0.2395004 -0.004861057
00000000: 9854 fd3d 2435 2bbf 460d 37be 6f4b 0dc0
00000010: 7d59 103f 287e 25bd 4d63 08bf f2ae 0fbe
00000020: 2865 debd 6be3 273f 6323 803e 64db fabf
00000030: 3f1b 363f 4eaa 963f e0b8 f53d 3099 073d
00000040: b4f5 583f f100 ad3d 0513 143e 07a0 eabf
00000050: 44f2 f3be 7297 ed3f e536 0a3f 5f76 e7bf
00000060: e5a2 35bf 4be6 49bf 403c 36bf e074 a33e
00000070: 2e90 cf3d 1d2f edbf 4dc5 673e 52e2 ffbf
00000080: d3a0 0a3f 5e19 f53e 27bb b0bd 58a2 f73f
00000090: 36a3 79be ce02 5cbf 9b51 013f 2f86 a2be
000000a0: 98d4 d7bd b7de 17c0 783f 123f ac55 2dbe
000000b0: adf8 433e f207 fb3f 74b9 4b3e a728 023f
000000c0: 315c 03bf 8d10 01c0 3b39 a4be f6ab 97be
000000d0: 62fe febd c421 01c0 a0b2 5ebe 0a98 f9bf
000000e0: 5261 7a3e 733a 1740 9227 cf3d fc8f 2040
000000f0: e5fb 15bf 0d8e c33f b805 b03e 9cac 07c0
00000100: 9993 b7be 4ce6 86bf c0d9 78bd 08d6 36be
00000110: 6c0d 0dbf 326b 873e 676c a8be e585 82bd
00000120: 6a8e 33bf 09cc 07c0 524f 3d3f d10f df3f
00000130: f41d 16be aee5 f53e 23b3 9e3e 9e21 e9bf
00000140: be58 9e3e a519 dbbf 7d16 c7be 3190 db3f
00000150: 84a0 f63e f67b b93f de1a 30bf 284c a93f
00000160: 4557 1c3f 8f35 02c0 0512 103f 1a07 c83e
00000170: c7c9 0abe 405f b93f 2c29 823e 0d9d e5bf
00000180: 70cf 9a3d 70f7 173d 145e 2dbf 3fd4 0740
00000190: ccac 2fbf 87e3 0a40 0085 2c3c 3954 2e3f
000001a0: 9da8 0c3f 5496 17be dffc f1be 35b6 cdbf
000001b0: 0020 3fbd 8080 f83b 60ed 4a3f a934 723f
000001c0: 7888 1a3d 283f 12c0 6cc9 093e c9d7 18bf
000001d0: edbb e5be 4926 0140 105b c0bd 4185 c13f
000001e0: 9141 083f e6e4 a2bf 78b8 9e3d 7ca3 013e
000001f0: 6fbd bcbe 58de c1bf c1c5 9b3e 3213 f73f
00000200: b6d5 29bf 5148 0040 7f90 e7be 67b2 ffbf
00000210: 11cf 113e 0978 c0bf 13ae bf3d b55a 03c0
00000220: 7d0c d63e a1b0 b03f abf7 103f 0686 25bf
00000230: 8db9 a0be f690 ebbe a1c6 0f3f 7512 5e3f
00000240: 11c3 a13d 5e4c 0440 f985 113f 03d6 0c3f
00000250: e86f 8bbe f274 0040 a663 1fbf 59a9 f3bf
00000260: 181d 8c3d 3aa4 bb3e ee24 7fbe bff7 343f
00000270: 29b0 2cbf 004d 773f 8029 76be ccda 0740
00000280: a0ca 6d3e 29bc 0e3f 6098 9f3d bd6a 0ec0
00000290: 787f 6d3f cd9c ba3e 2ca2 e7be 569d c83f
000002a0: 3aac 8a3e d891 42be 6fbd 56bf ab0b a1be
000002b0: 7946 1b3f 0063 f7bd fccd 523e 2020 6b3d
000002c0: 95fc 0fbf 1247 02c0 8153 5fbf 4ae3 68be
000002d0: 2447 a03e 86ec 0940 a79a 003f f108 aa3f
000002e0: b6f9 61be 250b d8bf d284 68bd dec9 a3bf
000002f0: 5ad5 183f f8c8 c1bf 6756 1f3f bb3b bbbe
00000300: b4de a0be 8f52 09c0 4b43 dbbe bd27 12be
00000310: fe9a a43e dd5c 29bf 7084 e43d 48b4 e23d
00000320: c80e debe c6f9 0540 cb9a 483e cbf0 04c0
00000330: 129b a4be 439f f13f 262f 1abf 5884 4f3f
00000340: 70f9 a13d 5273 cfbe 98b0 35bf 76a0 e53f
00000350: 4438 873e e72a 8bbf 5844 8dbd 4454 34bf
00000360: 6bd2 b5be 97ce 33bf d3ae febe 3402 403e
00000370: 2617 183c ce81 8d3f a5ec bd3d 7963 c13f
00000380: 788d edbe 117e 0f40 ff6f 7c3e 488e 06c0
00000390: 3322 1c3f 6da7 b23f 5f3c 1fbf 96ca bebf
000003a0: 6321 fa3d 9af3 e83f 260c bd3e 8867 9f3d
000003b0: 7a31 21be 7c98 c73e 8c43 1ebe 9f67 04c0
000003c0: 7fb1 15bf 70e9 d5bf ff0c edbe 52b5 c7bf
000003d0: 6b8f 0a3f 8ab2 af3e 3a66 08bf 00f4 7ebc
000003e0: bc3d 6a3e 2334 a4bf 5e2a 01bc 0806 f13f
000003f0: 2365 393f 4e13 da3f 983f 753e 8049 9fbb

layers.0.bias f4 [256]
-0.6022337 0.28957096 -0.13721628 -0.2373459 -0.6895235 0.29079205 -0.09660797 -0.5363191
0.011470695 0.67486 0.19717453 0.7026584 -0.15132661 -0.5034758 0.55356526 0.26521927
-0.47563258 0.38824433 0.05677216 -0.39674234 0.047691293 0.6793984 0.55642086 -0.18626958
0.71950954 -0.47932786 0.64074856 0.6452534 0.25522065 0.083432175 -0.016654052 0.37858403
0.6646868 -0.24479866 -0.1712697 0.5762304 0.35126412 0.20646162 -0.48835123 0.36520022
0.28294897 0.010055707 0.17455035 0.47563505 0.72585493 -0.6725869 0.50345767 0.29796606
-0.51504105 -0.013948987 0.048436478 -0.054442946 -0.36803487 0.023817414 -0.5653822 0.117966376
0.16467372 -0.37539142 0.4771618 0.36923784 0.69544876 -0.2627759 0.31972438 0.6848665
0.38936326 0.33583394 0.13447896 0.2387836 0.16276304 -0.63238674 0.4896568 0.084252365
0.61219853 -0.65112853 0.6544948 0.5676547 -0.26721314 -0.62790245 0.2807005 0.048393685
-0.43081006 0.27820534 0.068989165 0.28867346 -0.56890464 -0.4050059 -0.63839114 -0.3947135
0.40669167 -0.42222062 0.1561221 0.6484656 0.3428678 0.64485013 0.66349924 -0.425952
0.33163247 0.43417343 -0.68858314 -0.26305196 0.006757465 0.50859106 0.54479367 -0.07107882
-0.6385602 -0.021144804 0.5325675 -0.59344846 -0.5806901 -0.60166556 0.6027763 0.34313312
0.3506412 0.5027939 0.18562724 -0.015048325 0.2979922 -0.35303548 -0.19007866 0.054564055
0.49440646 0.3400585 -0.040346626 -0.6907649 0.50892085 0.37114137 0.64246637 -0.55280066
0.3195461 -0.18466084 0.69143134 0.13349675 -0.5316941 0.16521156 0.28337103 -0.62519276
-0.04880619 -0.12997347 0.17909154 0.1084822 -0.36937085 -0.080008805 0.5249691 0.25352526
-0.68767995 0.45212957 -0.3992642 -0.33202845 -0.51081413 -0.27160603 -0.4384707 0.12531953
0.35091266 0.1908647 0.1466561 -0.24590243 -0.2199463 -0.3068465 -0.5631013 0.09921255
0.32495683 0.07815843 0.021539168 -0.4944179 0.030313462 0.44714308 -0.43519124 0.31602776
-0.58346665 -0.30452606 0.7623066 0.0416963 0.50174636 -0.17939097 0.07264745 0.36635438
0.7441053 -0.5339082 -0.30467162 0.13524342 0.05585447 0.6317782 0.34409803 -0.26185337
0.38552517 0.51624286 0.38183665 -0.5233166 -0.10466969 -0.23575212 0.3730626 -0.10284109
-0.26024702 0.097359166 0.1017103 0.6618528 -0.14238518 0.15960695 0.1343362 0.5896297
-0.6201841 0.68787956 0.6176631 -0.2649509 0.48103926 -0.46318316 0.36062658 -0.49339566
0.30359882 0.1822322 0.66890925 -0.3794398 -0.3114897 0.71349984 0.25456408 0.11869577
-0.44077396 -0.315001 -0.5360353 0.30067125 -0.3505382 0.28810465 0.36072433 0.061199967
-0.39003697 0.5528115 0.63063926 -0.067152746 0.6153136 0.30459684 -0.40228096 -0.1617027
0.15141784 0.08776189 -0.40047902 0.65176857 0.6397314 -0.31586757 0.3544026 -0.011595779
-0.36244443 -0.45277432 0.16724326 -0.6772109 0.10638352 0.16718234 -0.34575522 -0.4760795
-0.58641225 -0.22989824 0.6313842 0.00480179 0.1770102 -0.27706036 -0.34294462 0.6645557
00000000: fd2b 1abf a542 943e 6d82 0cbe ce0a 73be
00000010: 9d84 30bf b2e2 943e 66da c5bd 354c 09bf
00000020: 95ef 3b3c a0c3 2c3f 1fe8 493e 6ce1 333f
00000030: 5df5 1abe cae3 00bf 74b6 0d3f d2ca 873e
00000040: 1d86 f3be f6c7 c63e ed89 683d d021 cbbe
00000050: f257 433d 0eed 2d3f 9971 0e3f 74bd 3ebe
00000060: c731 383f 766a f5be 1908 243f 542f 253f
00000070: 48ac 823e 7dde aa3d 146e 88bc c4d5 c13e
00000080: ea28 2a3f 80ac 7abe 5361 2fbe d683 133f
00000090: e4d8 b33e ad6a 533e 2c09 fabe 86fb ba3e
000000a0: b0de 903e b1c0 243c 54bd 323e 7086 f33e
000000b0: a1d1 393f a82e 2cbf 9ae2 003f 028f 983e
000000c0: bbd9 03bf 4b8a 64bc 5465 463d 91ff 5ebd
000000d0: 116f bcbe bd1c c33c e3bc 10bf 5b98 f13d
000000e0: 3aa0 283e 4e33 c0be 8d4e f43e be0c bd3e
000000f0: ee08 323f 908a 86be eab2 a33e 6953 2f3f
00000100: 9f5a c73e 6df2 ab3e dab4 093e b083 743e
00000110: 5bab 263e 19e4 21bf 4cb4 fa3e 818c ac3d
00000120: 0bb9 1c3f 5cb0 26bf f98c 273f d251 113f
00000130: 29d0 88be 37be 20bf fab7 8f3e 7538 463d
00000140: 2393 dcbe ee70 8e3e 314a 8d3d 02cd 933e
00000150: bca3 11bf ef5c cfbe 9a6d 23bf e317 cabe
00000160: e439 d03e 4d2d d8be 79de 1f3e d701 263f
00000170: 5e8c af3e e614 253f 16db 293f 6116 dabe
00000180: bbcb a93e fb4b de3e fc46 30bf bfae 86be
00000190: ba6d dd3b 0633 023f 9977 0b3f c691 91bd
000001a0: ae78 23bf de37 adbc 5856 083f 3dec 17bf
000001b0: 1ba8 14bf c106 1abf 8c4f 1a3f 25af af3e
000001c0: 3e87 b33e 1ab7 003f 1115 3e3e 408d 76bc
000001d0: 6f92 983e 11c1 b4be fba3 42be 8f7e 5f3d
000001e0: d822 fd3e 261c ae3e 8142 25bd f8d5 30bf
000001f0: a348 023f 3e06 be3e ad78 243f 5884 0dbf
00000200: 8c9b a33e bb17 3dbe a501 313f 5fb3 083e
00000210: 1b1d 08bf 382d 293e 0216 913e a20c 20bf
00000220: 00e9 47bd c417 05be c663 373e ea2b de3d
00000230: 2d1e bdbe a8db a3bd 6064 063f 10ce 813e
00000240: cb0b 30bf 877d e73e 5b6c ccbe a2ff a9be
00000250: b7c4 02bf f20f 8bbe 3b7f e0be c353 003e
00000260: d3aa b33e 0972 433e 042d 163e d9cd 7bbe
00000270: 9a39 61be fc1a 9dbe 6827 10bf f32f cb3d
00000280: be60 a63e 8711 a03d e972 b03c 5824 fdbe
00000290: f053 f83c f0ef e43e 63d1 debe 64ce a13e
000002a0: 125e 15bf d7ea 9bbe 8626 433f bdc9 2a3d
000002b0: 7372 003f 44b2 37be 30c8 943d cd92 bb3e
000002c0: af7d 3e3f 35ae 08bf ebfd 9bbe 407d 0a3e
000002d0: a8c7 643d 37bc 213f 9e2d b03e a511 86be
000002e0: 8e63 c53e 7e28 043f 1880 c33e 14f8 05bf
000002f0: 105d d6bd 0169 71be 1002 bf3e 599e d2bd
00000300: 193f 85be 3e64 c73d 7d4d d03d 2f6f 293f
00000310: 6ccd 11be 0170 233e 6e8f 093e f9f1 163f
00000320: 63c4 1ebf e018 303f 2b1f 1e3f a5a7 87be
00000330: c74a f63e 5826 edbe 0ca4 b83e 5b9e fcbe
00000340: 4e71 9b3e 149b 3a3e a33d 2b3f ef45 c2be
00000350: 947b 9fbe eda7 363f 3956 823e c516 f33d
00000360: 20ad e1be d047 a1be 9c39 09bf 95f1 993e
00000370: be79 b3be 7482 933e dcb0 b83e d1ac 7a3d
00000380: edb2 c7be 0e85 0d3f 9371 213f 6187 89bd
00000390: 3185 1d3f 1ef4 9b3e c5f7 cdbe 6595 25be
000003a0: 470d 1b3e 81bc b33d 960b cdbe 4eda 263f
000003b0: 70c5 233f 65b9 a1be 4274 b53e 39fc 3dbc
000003c0: 5192 b9be 09d2 e7be d141 2b3e b25d 2dbf
000003d0: 9adf d93d d931 2b3e d406 b1be b1c0 f3be
000003e0: 1d1f 16bf 726a 6bbe 65a2 213f 5658 9d3b
000003f0: 2942 353e dbda 8dbe 7096 afbe 5320 2a3f

layers.1.weight f4 [128, 256]
-0.040998235 0.008781845 -0.13320622 -0.006848041 -0.0011858866 0.07048164 -0.15933055 -0.050615706
0.009486961 0.038861368 0.010948093 0.10361907 -0.054191627 -0.520354 -0.0015687218 0.073247604
0.048451513 -0.00758798 0.0809281 -0.019529529 0.30836406 0.0037595353 -0.008948038 0.012957871
-0.034155205 0.030701324 0.00821704 -0.0035524464 -0.1557958 -0.4285702 -0.013043968 0.17916566
0.04460327 -0.03778515 -0.07622306 -0.03731424 0.041223906 -0.090218 -0.058653735 0.12075312
0.1545805 -0.041968368 -0.008037833 0.037085403 0.06467828 0.039298758 -0.026667617 0.14511772
-0.03762213 -0.09797119 -0.09053504 0.023518095 0.062057637 0.054272216 -0.03827525 -0.09551338
0.20546715 -0.062193193 -0.051749382 -0.0019998495 -0.0008158398 -0.023171343 -0.023646511 -0.015135177
-0.06468884 0.07545195 0.1636675 0.051207736 -0.069586515 -0.019216299 0.010197946 -0.053410638
0.03069164 -0.020580553 -0.006546356 0.06909186 0.04444378 -0.0073794723 -0.040189017 -0.11593825
-0.0473473 0.061382577 -0.10789055 -0.054053437 0.05355508 -0.1020454 0.03775087 0.037528522
0.032566305 -0.11212119 -0.1394288 -0.044136826 -0.009460206 0.03813736 0.023817303 -0.051866494
0.108821966 0.05408568 0.019643389 0.014848173 -0.11758432 0.037858773 0.022552596 -0.047142643
-0.042108655 -0.1174724 0.0033570807 0.025287338 0.055592693 0.017046534 -0.032943994 -0.0020333177
0.00081539736 0.0205404 -0.026761414 0.022517446 0.0047602113 0.024237983 0.09495041 0.28163043
-0.020485032 0.042096153 0.07541863 -0.006326653 0.05833463 -0.07142597 0.033969138 -0.006471105
0.0030191634 -0.07915546 0.052843653 -0.16902816 0.012519889 -0.1731545 -0.027517885 0.036594734
0.016992316 -0.15374917 -0.056612387 -0.0063086255 -0.02981975 -0.047570914 -0.078220114 -0.009899123
-0.017708443 0.094452515 -0.030223465 -0.122851044 -0.041344717 -0.3649585 -0.059031025 -0.059507463
-0.046198685 0.06743747 -0.20899665 -0.02679956 -0.06945412 -0.04413613 0.011326984 0.1972553
0.14214346 0.09035077 -0.386278 -0.043224744 -0.3210846 0.12881705 -0.005729452 -0.038357273
0.053361364 -0.111656725 0.018590815 -0.12526292 0.06137773 0.025732674 -0.24041116 0.134979
0.0044993064 -0.007170096 -0.29064506 -0.060204227 0.02997629 0.04217468 0.041238602 -0.12148677
-0.0014215853 0.06574127 -0.05823429 0.016023085 0.03145078 -0.004383989 -0.018334944 0.048077233
0.013378784 -0.029252639 -0.19261469 0.020550068 -0.14500296 -0.18676928 0.0692291 -0.0018337282
0.00968878 0.044991814 -0.037347168 0.047385212 -0.051209413 0.015700191 0.008723123 -0.27813724
-0.00665897 0.14241944 0.07822553 -0.4168626 0.16898656 0.04291234 -0.0152146965 -0.081926204
-0.1121969 -0.44850808 -0.31353328 0.03611625 -0.050492927 -0.039476484 0.03129685 0.21967548
-0.0005617663 -0.028653443 -0.012739902 0.071108356 -0.0077028684 0.13435766 0.03379134 -0.07960284
-0.20258969 0.03305155 -0.052694015 -0.062791795 0.010423705 -0.025535168 -0.023376213 -0.089924894
0.03490852 0.035421908 -0.066137195 0.0072251037 -0.1932222 -0.11051565 0.054169744 0.03053245
-0.44020644 -0.019921832 0.0458188 -0.15764911 -0.12583216 -0.10780733 -0.055827353 0.024378452
00000000: c4ed 27bd bae1 0f3c 3667 08be 8865 e0bb
00000010: c06f 9bba ae58 903d 8c27 23be 6a52 4fbd
00000020: 336f 1b3c 192d 1f3d a15f 333c 3c36 d43d
00000030: 0af8 5dbd eb35 05bf 929d cdba d702 963d
00000040: 1875 463d 97a4 f8bb a2bd a53d 64fc 9fbc
00000050: e5e1 9d3e 8962 763b cb9a 12bc 404d 543c
00000060: 54e6 0bbd 5881 fb3c c4a0 063c 29d0 68bb
00000070: ef88 1fbe 8e6d dbbe 5eb6 55bc 3477 373e
00000080: ebb1 363d 9ac4 1abd d61a 9cbd d1d6 18bd
00000090: 66da 283d 37c4 b8bd e63e 70bd 694d f73d
000000a0: 5a4a 1e3e 06e7 2bbd 1db1 03bc dde6 173d
000000b0: 0c76 843d bcf7 203d 0c76 dabc bd99 143e
000000c0: aa19 1abd 1fa5 c8bd 6f6a b9bd 05a9 c03c
000000d0: 2630 7e3d 8b4c 5e3d 82c6 1cbd 859c c3bd
000000e0: fb65 523e 4abe 7ebd 29f7 53bd e80f 03bb
000000f0: 15de 55ba d4d1 bdbc 54b6 c1bc 89f9 77bc
00000100: 957b 84bd 8d86 9a3d 7498 273e 34bf 513d
00000110: 6083 8ebd 806b 9dbc 4915 273c 1dc5 5abd
00000120: 096d fb3c 8c98 a8bc d082 d6bb 0880 8d3d
00000130: ae0a 363d 80cf f1bb 3d9d 24bd 0971 edbd
00000140: 3eef 41bd 4c6c 7b3d b8f5 dcbd 2367 5dbd
00000150: 925c 5b3d 2efd d0bd a8a0 1a3d 82b7 193d
00000160: 3f64 053d cb9f e5bd 6cc6 0ebe d1c8 34bd
00000170: fbfe 1abc ec35 1c3d 811c c33c f671 54bd
00000180: 0dde de3d f288 5d3d 2ceb a03c c045 733c
00000190: 0cd0 f0bd cd11 1b3d 39c0 b83c a518 41bd
000001a0: 207a 2cbd 5f95 f0bd 7802 5c3b 6427 cf3c
000001b0: 2ab5 633d 2ca5 8b3c 48f0 06bd 6941 05bb
000001c0: 64c0 553a 5744 a83c c13a dbbc 8276 b83c
000001d0: 8cfb 9b3b bc8e c63c 5c75 c23d dd31 903e
000001e0: 3ad0 a7bc 046d 2c3d 1575 9a3d d04f cfbb
000001f0: 4bf0 6e3d c747 92bd 3923 0b3d 900b d4bb
00000200: 28dd 453b 421c a2bd 9672 583d b815 2dbe
00000210: 3820 4d3c 6a4f 31be 306d e1bc 5ce4 153d
00000220: 7833 8b3c 6c70 1dbe 64e2 67bd 96b8 cebb
00000230: 8c48 f4bc b8d9 42bd de31 a0bd ee2f 22bc
00000240: 4c11 91bc 5270 c13d 3397 f7bc 5499 fbbd
00000250: 1459 29bd d7db babe 84ca 71bd 19be 73bd
00000260: d53a 3dbd a81c 8a3d 3803 56be c08a dbbc
00000270: f63d 8ebd 16c8 34bd d094 393c 4bfd 493e
00000280: 0e8e 113e d309 b93d 3bc6 c5be 6e0c 31bd
00000290: 3365 a4be 9ee8 033e 20be bbbb 841c 1dbd
000002a0: 7291 5a3d 48ac e4bd c44b 983c ec44 00be
000002b0: 3767 7b3d 54cd d23c 582e 76be ef37 0a3e
000002c0: eb6e 933b 20f3 eabb 6ecf 94be b598 76bd
000002d0: d690 f53c 5bbf 2c3d cfe9 283d 0ece f8bd
000002e0: 7d54 baba 5ca3 863d 1487 6ebd d842 833c
000002f0: 88d2 003d 91a7 8fbb 2a33 96bc a2ec 443d
00000300: b032 5b3c 3ba3 efbc c93c 45be 9e58 a83c
00000310: a87b 14be 7240 3fbe fdc7 8d3d b559 f0ba
00000320: b0bd 1e3c 5649 383d 58f9 18bd ff16 423d
00000330: f6c0 51bd b09d 803c 6eeb 0e3c 0168 8ebe
00000340: 7d33 dabb 67d6 113e b534 a03d 046f d5be
00000350: d00a 2d3e dac4 2f3d 1047 79bc edc8 a7bd
00000360: 7dc7 e5bd daa2 e5be 6f87 a0be a2ee 133d
00000370: acd1 4ebd 18b2 21bd 2031 003d 9cf2 603e
00000380: 8043 13ba a0ba eabc 06bb 50bc 42a1 913d
00000390: 5868 fcbb 0e95 093e ca68 0a3d d006 a3bd
000003a0: ac73 4fbe 1061 073d aed5 57bd fc98 80bd
000003b0: 30c8 2a3c 212f d1bc 797f bfbc 8b2a b8bd
000003c0: 3cfc 0e3d 9016 113d f072 87bd 90c0 ec3b
000003d0: 0adc 45be 0756 e2bd 18e1 5d3d 301f fa3c
000003e0: bd62 e1be 1c33 a3bc 7eac 3b3d c56e 21be
000003f0: 25da 00be 17ca dcbd 39ab 64bd 52b5 c73c

layers.1.bias f4 [128]
0.059394263 0.07223566 0.019008163 -0.051112443 0.013030941 0.025240488 0.0283528 -0.013025089
-0.00010249764 0.009069251 0.032506764 0.023527185 -0.050053913 -0.03147143 0.04785394 0.024930703
-0.039802328 -0.060740445 -0.0073219365 -0.030314587 0.057906345 0.016145341 -0.0052197096 0.06405503
0.05669595 0.023485547 -0.05021739 -0.04418107 -0.05106909 0.026507985 0.014488389 -0.0073118475
-0.057250116 0.010448649 -0.0333409 -0.05917789 0.017914072 0.040948346 -0.008564316 0.036888976
-0.015837999 0.048808455 0.013873495 0.058719326 0.07313597 -0.01984031 -0.0006438672 0.023061618
0.0006909668 -0.043570384 0.027892033 -0.023357226 -0.014928507 -0.047290094 -0.015151908 -0.017833106
0.11710394 0.062296696 -0.030788071 0.024105161 -0.007627785 0.024787528 -0.06059596 -0.01199837
-0.03440375 -0.016057815 0.028193496 0.011058157 0.010222293 0.01938878 -0.036788665 -0.0052488334
0.040419243 -0.06465971 -0.02835262 -0.03636626 -0.008858077 0.06945348 -0.05057794 -0.010549373
-0.037778236 0.034371573 0.002807719 0.053828217 -0.004132907 -0.011660097 -0.038295127 0.013898857
-0.005030343 -0.04241059 -0.028254226 0.020509811 0.024339303 0.055134777 0.034968667 -0.060817115
-0.04950895 -0.005366574 0.01869958 0.018489987 -0.0074821566 0.02192358 0.0032972826 0.015183918
-0.046586268 -0.04601279 0.016834635 -0.05403004 0.046191834 -0.03842887 0.011815486 0.0635156
-0.004058087 -0.015619084 0.0527883 0.021388495 0.049226247 0.046496145 0.03835498 0.045250826
0.0069393143 -0.0453924 0.07118071 0.029094521 -0.009036504 -0.059721008 0.08433043 -0.040052023
00000000: 6647 733d 4af0 933d 02b7 9b3c 485b 51bd
00000010: ba7f 553c 24c5 ce3c 2244 e83c 2f67 55bc
00000020: 00f4 d6b8 3297 143c d025 053d 15bc c03c
00000030: 5505 4dbd 30e8 00bd 7e02 443d 793b cc3c
00000040: c407 23bd f9ca 78bd dbec efbb 4c56 f8bc
00000050: 342f 6d3d 3c43 843c 190a abbb 492f 833d
00000060: 033a 683d c364 c03c c0b0 4dbd 36f7 34bd
00000070: d22d 51bd 4627 d93c b560 6d3c 3998 efbb
00000080: 197f 6abd cf30 2b3c 7890 08bd 8464 72bd
00000090: 88c0 923c 74b9 273d 5851 0cbc e518 173d
000000a0: b1be 81bc 60eb 473d a84d 633c ad83 703d
000000b0: 50c8 953d 2588 a2bc 32c9 28ba b8eb bc3c
000000c0: ff21 353a dc76 32bd d57d e43c a757 bfbc
000000d0: b296 74bc 42b3 41bd b53f 78bc bc16 92bc
000000e0: 31d4 ef3d d22a 7f3d 4437 fcbc 3078 c53c
000000f0: 80f2 f9bb 370f cb3c 7833 78bd d094 44bc
00000100: f2ea 0cbd ae8b 83bc 0cf6 e63c 462d 353c
00000110: 687b 273c 38d5 9e3c b6af 16bd 68fe abbb
00000120: a68e 253d 4f6c 84bd c143 e8bc caf4 14bd
00000130: 7821 11bc a03d 8e3d d02a 4fbd 47d7 2cbc
00000140: 5abd 1abd 35c9 0c3d b501 383b fa7a 5c3d
00000150: 566d 87bb fe09 3fbc 5adb 1cbd 08b8 633c
00000160: 93d5 a4bb bab6 2dbd 6875 e7bc 3104 a83c
00000170: 3863 c73c 01d5 613d 4e3b 0f3d 5e1b 79bd
00000180: e6c9 4abd 16da afbb dd2f 993c 5078 973c
00000190: e12c f5bb 1499 b33c 3917 583b f8c5 783c
000001a0: 3ed1 3ebd e877 3cbd cae8 893c 9a4e 5dbd
000001b0: a633 3d3d 9767 1dbd bd95 413c 7814 823d
000001c0: b3f9 84bb 30e7 7fbc 8b38 583d ed36 af3c
000001d0: 76a1 493d be72 3e3d 1d1a 1d3d ee58 393d
000001e0: 3063 e33b 62ed 39bd 31c7 913d a257 ee3c
000001f0: d80d 14bc 049e 74bd 6fb5 ac3d 970d 24bd

layers.2.weight f4 [1, 128]
-0.23627748 -1.0050989 0.17174007 0.070266426 -1.1851597 0.039019447 0.05586463 -1.0835302
-0.06805374 -1.1030693 -0.04977664 -0.92301226 0.024470907 0.06172494 0.009059141 0.22568394
0.0014951443 -0.11714635 0.10139962 0.08411742 0.02579641 -1.0341157 -1.0401543 0.3183107
0.38310653 -1.0183928 0.06026306 0.015765976 0.06947765 -0.1576725 0.08526642 0.060423765
-0.047676325 -1.0491494 -1.0611246 0.022817679 0.07531826 0.040899463 -0.03743069 0.014663455
-0.074453436 0.00029732697 0.24336031 -1.0236266 -1.0274544 0.019499576 -0.10298711 0.06912973
0.048958626 0.02417712 0.009198793 0.0033271087 -0.9272475 0.05519843 -0.10929957 -0.005354464
0.26459065 0.22924875 -0.05372585 -0.0135547 0.02597113 0.23866443 -0.056427475 -0.035061594
0.05708346 -0.049596425 -0.08520988 -0.943001 0.0034336597 -0.07955209 0.023951396 -1.042599
-0.060292438 -0.0616617 0.050014194 0.088030554 0.02003245 -1.0429296 -0.07935869 0.052101787
-0.034590203 -1.0998574 -1.0279728 0.017141223 -1.17649 0.28245848 0.02065231 -1.1115746
0.07927581 0.082018755 -0.10970572 0.08053598 0.0032411746 0.000279203 0.046528302 -0.05626273
0.05456438 0.06850258 0.066928476 -0.06254884 0.037011098 -0.9903907 0.10399313 -0.058977403
0.020557232 -0.06426172 0.066858865 0.08030964 -0.08793806 0.013104786 0.009591021 -1.0525148
-0.0017272079 -0.035464875 0.019566188 0.045344148 0.04071777 -1.1897367 -1.0590141 -0.98340225
-1.0471393 0.020570993 -1.0772489 0.07455691 0.07148954 -0.013049811 0.2919241 -0.98331803
00000000: b9f2 71be 15a7 80bf a1dc 2f3e d8e7 8f3d
00000010: 50b3 97bf dbd2 1f3d 4fd2 643d 1eb1 8abf
00000020: c25f 8bbd 6031 8dbf 97e2 4bbd 884a 6cbf
00000030: 3677 c83c 4ad3 7c3d cb6c 143c b119 673e
00000040: b8f8 c33a 6dea efbd 9baa cf3d c145 ac3d
00000050: fe52 d33c e75d 84bf c723 85bf 9ff9 a23e
00000060: 8a26 c43e b25a 82bf 66d6 763d a627 813c
00000070: 4c4a 8e3d e674 21be 29a0 ae3d e97e 773d
00000080: 4048 43bd 874a 86bf eed2 87bf 24ec ba3c
00000090: 7640 9a3d 3286 273d ec50 19bd fd3e 703c
000000a0: 0b7b 98bd 8de2 9b39 7233 793e 3206 83bf
000000b0: a083 83bf 93bd 9f3c e8ea d2bd e393 8d3d
000000c0: d788 483d 180f c63c 89b6 163c 9f0b 5a3b
000000d0: 1860 6dbf c017 623d 74d8 dfbd 8074 afbb
000000e0: 6d78 873e 2fc0 6a3e a30f 5cbd 8814 5ebc
000000f0: 68c1 d43c 7364 743e 7f20 67bd bf9c 0fbd
00000100: 59d0 693d 9f25 4bbd 8482 aebd 8368 71bf
00000110: 4007 613b 35ec a2bd b835 c43c e273 85bf
00000120: 34f5 76bd fb90 7cbd afdb 4c3d 5d49 b43d
00000130: 181b a43c b87e 85bf cf86 a2bd af68 553d
00000140: 75ae 0dbd 21c8 8cbf 9d94 83bf c06b 8c3c
00000150: 3997 96bf 669e 903e 092f a93c 1448 8ebf
00000160: 5b5b a23d 73f9 a73d 64ad e0bd 0cf0 a43d
00000170: e369 543b fe61 9239 7694 3e3d c073 66bd
00000180: e67e 5f3d 154b 8c3d cc11 893d 9b19 80bd
00000190: f398 173d 3f8a 7dbf 5afa d43d 4a92 71bd
000001a0: a467 a83c a69b 83bd 4ded 883d 6179 a43d
000001b0: df18 b4bd 75b5 563c a823 1d3c ceb8 86bf
000001c0: 7b63 e2ba 9e43 11bd 4549 a03c c9ba 393d
000001d0: adc7 263d 4b49 98bf c68d 87bf 40c0 7bbf
000001e0: a908 86bf 8084 a83c 4be3 89bf 4bb1 983d
000001f0: 1c69 923d e0ce 55bc 1377 953e bbba 7bbf
